proposed_method_3/artifacts/stage2_prior_model_best.pt (torch, 794477 bytes, 8 tensors)

block1.dw.weight f4 [1, 1, 7, 7]
0.017019643 0.045551956 0.037797593 0.016208583 -0.0052087335 0.021022245 -0.005384336 0.023440313
0.091183335 0.22103477 0.51894057 -0.1608257 -0.0940561 0.054673817 0.0058993157 -0.013034888
0.28405118 0.53495103 0.33229986 -0.21812052 0.117486216 0.0025493242 0.13455322 0.6427432
-5.497437e-07 -0.3641906 -0.15507056 -0.08919671 0.072552465 0.014271295 0.2075798 -0.1456736
-0.20741192 -0.067619234 -0.0072839726 -0.080095604 -0.12929198 -0.06072581 -0.057611343 -0.08993154
0.009237148 -0.009298247 0.006191586 0.011018889 -0.05967213 0.014789613 -0.07055189 -0.0127220545
-0.010860413
00000000: c76c 8b3c b094 3a3d a6d1 1a3d ddc7 843c
00000010: 06ae aabb d836 ac3c 166f b0bb e605 c03c
00000020: 54be ba3d f056 623e 4ad9 043f 7eaf 24be
00000030: 7ca0 c0bd a7f1 5f3d 0c4f c13b 4890 55bc
00000040: 286f 913e 8df2 083f 3523 aa3e fc5a 5fbe
00000050: 9d9c f03d 9012 273b 52c8 093e d18a 243f
00000060: 1992 13b5 3177 babe d1ca 1ebe c4ac b6bd
00000070: 6396 943d 26d2 693c cd8f 543e 762b 15be
00000080: ca63 54be f47b 8abd 64ae eebb 2a09 a4bd
00000090: 1e65 04be a0bb 78bd dff9 6bbd 072e b8bd
000000a0: 6857 173c ad57 18bc cae2 ca3b 9288 343c
000000b0: c36a 74bd 2250 723c 827d 90bd 2a70 50bc
000000c0: e0ef 31bc

block1.pw.weight f4 [60, 1, 1, 1]
0.035972256 -0.21495035 -0.012076195 -0.06542639 -0.28510085 -0.064748704 0.19737594 0.024004498
-0.045158133 -0.25841329 -0.1969351 -0.13161953 0.26852876 0.050323837 0.12173701 -0.18154988
0.11552675 -0.34997272 -0.10217401 0.097398184 0.07428699 0.07204131 0.031313475 0.15994315
0.3717278 0.02402502 -0.013582592 -0.19941184 0.071573906 0.10854512 0.12091415 -0.22023967
-0.16038868 -0.3794616 0.21381061 0.017800277 0.17588732 0.15342133 -0.22888498 0.1801708
0.0035410163 -0.16081205 0.17439884 0.23434815 -0.17544565 -0.116391495 0.013642853 0.10223597
0.09702059 0.22549562 -0.26979768 -0.32054022 0.28017122 -0.0005853714 -0.2927429 0.010607284
-0.11506673 0.13631749 -0.011689289 0.1895897
00000000: a557 133d f21b 5cbe 3cdb 45bc 45fe 85bd
00000010: bdf8 91be f89a 84bd eb1c 4a3e 15a5 c43c
00000020: bcf7 38bd bf4e 84be 5ba9 49be 45c7 06be
00000030: 9a7c 893e 5e20 4e3d 4151 f93d 36e8 39be
00000040: 4a99 ec3d a02f b3be 9b40 d1bd b378 c73d
00000050: c723 983d 658a 933d 8f42 003d 23c8 233e
00000060: 1b53 be3e 1ed0 c43c 8589 5ebc 9e32 4cbe
00000070: 5795 923d e74c de3d d6a1 f73d 8286 61be
00000080: ee3c 24be ca48 c2be 2bf1 5a3e e3d1 913c
00000090: ce1b 343e 7b1a 1d3e d360 6abe b27e 383e
000000a0: 6510 683b eaab 24be 9c95 323e f6f8 6f3e
000000b0: 06a8 33be aa5e eebd 4686 5f3c 1861 d13d
000000c0: bbb2 c63d 53e8 663e ec22 8abe d91d a4be
000000d0: 9a72 8f3e 9c73 19ba 66e2 95be 2cca 2d3c
000000e0: 1ba8 ebbd d096 0b3e 6e84 3fbc cd23 423e

block2.dw.weight f4 [60, 1, 5, 5]
0.046050496 0.13334797 0.050314564 -0.060794584 0.056566007 0.049879227 0.20903143 -0.11184974
0.0823157 -0.25366047 0.29459903 -0.16790889 -0.12874293 0.049124867 -0.0006721914 0.15922758
-0.26343748 0.37759417 0.14224231 0.059650596 -0.0046737865 0.11642352 0.16236147 -0.031028196
0.14983928 -0.026520267 0.23512779 0.12825838 -0.06289628 -0.034589615 0.08674468 -0.050828084
-0.3421773 0.03300704 0.20926666 0.05979167 -0.16490825 -0.59438473 -0.1021661 0.04086855
-0.015339045 -0.18784481 -0.31423312 -0.03497456 0.013653383 0.065219864 -0.0071493853 -0.15472597
0.13946767 0.034775116 0.077574395 0.18480054 0.092367545 0.025770627 0.029083196 0.19092736
0.37558883 0.090393916 0.16216213 -0.078932114 0.10556856 -0.38141257 -0.6769471 -0.36709148
-0.10258622 -0.08427559 0.32328916 -0.29013813 -0.006008826 0.13873781 0.13891216 0.007455254
-0.009021252 0.2413909 0.09180254 0.17251033 -0.030636013 0.02903619 0.058339857 -0.122716144
0.07758959 0.13216089 -0.12496485 -0.16142948 -0.15852988 -0.003634002 0.13501032 0.16162485
-0.11471154 0.039488107 0.10578173 0.10452567 0.006213002 0.06506802 0.2554183 0.20351823
0.16369733 0.08333186 0.339623 0.08995482 -0.043109216 0.16918369 0.10726942 0.17040975
-0.107058 -0.033081815 -0.19563955 -0.2727478 -0.12866671 -0.028502436 0.2446968 -0.14598346
0.38471693 -0.49357045 0.0048531927 -0.029617628 -0.24893293 -0.03074158 -0.2109788 0.20356628
-0.13397628 0.28431854 0.13434644 0.03927498 0.0044481903 0.20955622 0.05202121 0.18167672
-0.04713604 0.0878568 0.19195524 0.10022076 -0.22611672 -0.06603717 0.20598371 -0.0042569675
-0.26410317 -0.26950106 0.31893098 0.091741055 -0.022180038 -0.101165146 -0.16118115 0.12069536
0.09439421 -0.08039065 -0.08797596 0.057457894 -0.03835818 -0.047482587 0.22390646 0.1689493
0.0698426 0.023595322 -0.011744391 0.19111018 0.18069297 0.021025762 -0.039697703 -0.14546077
0.011866264 -0.052298643 -0.902009 -0.07775113 -0.12145864 0.36746252 -0.32434 0.058403
-0.10324156 0.07418266 0.2399877 0.11589238 0.09726772 -0.09612638 0.058502167 -0.015607998
0.15416491 -0.119542144 -0.020434698 -0.008119792 0.11699315 0.1631207 0.08330345 -0.41938326
-0.11673234 0.029672682 -0.3391285 -0.8850566 -0.087649025 0.06943588 0.1293702 -0.111502334
-0.23293966 -0.0557234 0.1883226 -0.076053336 -0.042365335 0.17916897 0.25271708 0.052147444
0.087320305 0.056366567 0.0043724366 0.19234896 0.18674682 0.316767 -0.25296962 -0.008202255
0.0074139014 0.0040229335 0.28980133 -0.051385503 -0.3204323 -0.45622236 0.020958561 0.09766899
0.042798564 0.27340096 0.40865237 0.20119542 0.04764402 0.19456078 -0.0486893 0.14882892
0.023693055 0.029817231 0.116763525 -0.19561526 0.025798313 0.11485961 0.06773588 0.22960228
-0.29051754 -0.20683634 -0.20202515 0.17888188 -0.31818908 -0.41623995 -0.17988268 0.045925647
0.011545997 0.010234147 -0.04293389 -0.07392715 0.038265325 0.040513314 0.082633436 0.0129741095
0.10601482 0.041617993 -0.07208159 0.046480075 0.013058085 -0.22534655 -0.10958868 0.20626496
00000000: 729f 3c3d 5f8c 083e a516 4e3d be03 79bd
00000010: c2b1 673d 294e 4c3d 560c 563e 7a11 e5bd
00000020: 2295 a83d c9df 81be afd5 963e 4ff0 2bbe
00000030: 30d5 03be 2837 493d 0036 30ba 8e0c 233e
00000040: 47e1 86be 0654 c13e f8a7 113e 2f54 743d
00000050: 9026 99bb 746f ee3d 1642 263e d82e febc
00000060: 786f 193e 0841 d9bc 57c5 703e 2a56 033e
00000070: c4cf 80bd d7ad 0dbd 32a7 b13d 1c31 50bd
00000080: dd31 afbe 6432 073d 004a 563e 1ce8 743d
00000090: b5dd 28be 9929 18bf 763c d1bd c865 273d
000000a0: 9e50 7bbc 645a 40be 2ae3 a0be 7c41 0fbd
000000b0: 70b2 5f3c fe91 853d 6445 eabb 7c70 1ebe
000000c0: 9dd0 0e3e 5a70 0e3d 53df 9e3d 5a3c 3d3e
000000d0: 322b bd3d ec1c d33c e23f ee3c 7682 433e
000000e0: 2e4d c03e 7220 b93d d40d 263e 29a7 a1bd
000000f0: 5434 d83d 8248 c3be 684c 2dbf 6af3 bbbe
00000100: b918 d2bd ae98 acbd 2886 a53e fc8c 94be
00000110: b0e5 c4bb 4911 0e3e fd3e 0e3e 344b f43b
00000120: e0cd 13bc 2d2f 773e f802 bc3d 8ca6 303e
00000130: 60f8 fabc 4edd ed3c c6f5 6e3d 9a52 fbbd
00000140: 4ae7 9e3d 2f55 073e 92ed ffbd c54d 25be
00000150: a855 22be 7028 6ebb 2540 0a3e fc80 253e
00000160: e2ed eabd 48be 213d 17a4 d83d 8e11 d63d
00000170: 7096 cb3b 6242 853d 30c6 823e 1567 503e
00000180: 46a0 273e e5a9 aa3d 11e3 ad3e 3c3a b83d
00000190: 4a93 30bd 7d3e 2d3e 12b0 db3d e57f 2e3e
000001a0: 3a41 dbbd cc80 07bd bc55 48be 9aa5 8bbe
000001b0: 35c1 03be f17d e9bc cc91 7a3e b07c 15be
000001c0: 9ef9 c43e 44b5 fcbe 8807 9f3b aba0 f2bc
000001d0: 46e8 7ebe c4d5 fbbc d40a 58be ae73 503e
000001e0: 1431 09be 3392 913e 1d92 093e cdde 203d
000001f0: 20c2 913b e895 563e 3114 553d 7609 3a3e
00000200: b811 41bd 44ee b33d ea8f 443e 8b40 cd3d
00000210: 248b 67be 7f3e 87bd 65ed 523e 087e 8bbb
00000220: 8838 87be 0bfc 89be ec4a a33e bce2 bb3d
00000230: e9b2 b5bc ac2f cfbd ac0c 25be 212f f73d
00000240: c051 c13d daa3 a4bd bd2c b4bd f858 6b3d
00000250: 781d 1dbd 1a7d 42bd bc47 653e 0c01 2d3e
00000260: a309 8f3d fa4a c13c 8c6b 40bc 63b2 433e
00000270: 9407 393e 383e ac3c 0f9a 22bd abf3 14be
00000280: b86a 423c 1a37 56bd 10ea 66bf fc3b 9fbd
00000290: 4fbf f8bd 0c24 bc3e e40f a6be fc37 6f3d
000002a0: 5070 d3bd 14ed 973d 56bf 753e fc58 ed3d
000002b0: 4c34 c73d e8dd c4bd f89f 6f3d b0b8 7fbc
000002c0: 68dd 1d3e 83d2 f4bd ab66 a7bc e008 05bc
000002d0: 1b9a ef3d 1d09 273e 009b aa3d 67b9 d6be
000002e0: 5d11 efbd 2014 f33c 40a2 adbe 1293 62bf
000002f0: 5581 b3bd 6634 8e3d 9f79 043e 565b e4bd
00000300: bc87 6ebe 383e 64bd a4d7 403e dac1 9bbd
00000310: 4687 2dbd 1278 373e 2264 813e 8f98 553d
00000320: fdd4 b23d a1e0 663d a846 8f3b 20f7 443e
00000330: 8f3a 3f3e 492f a23e 3c85 81be c062 06bc
00000340: 50f0 f23b d0d2 833b d760 943e 9b79 52bd
00000350: b40f a4be fa95 e9be 4ab1 ab3c ae06 c83d
00000360: 8c4d 2f3d 36fb 8b3e e23a d13e 2c06 4e3e
00000370: 6026 433d f13a 473e 6e6e 47bd 9c66 183e
00000380: f017 c23c 4443 f43c b721 ef3d 5e4f 48be
00000390: fc56 d33c 843b eb3d 1cb9 8a3d dc1c 6b3e
000003a0: b7be 94be e8cc 53be aedf 4ebe d02c 373e
000003b0: aee9 a2be 671d d5be 2a33 38be 881c 3c3d
000003c0: 6c2b 3d3c 20ad 273c 72db 2fbd 1e67 97bd
000003d0: 1abc 1c3d 4af1 253d b83b a93d 5c91 543c
000003e0: 4c1e d93d a177 2a3d 839f 93bd e461 3e3d
000003f0: 94f1 553c 3fc1 66be 0870 e0bd 1f37 533e

block2.pw.weight f4 [60, 60, 1, 1]
0.21454059 -0.046279047 0.05670072 0.1799402 0.15995243 -0.09980624 0.26616848 0.18864964
-0.3299751 0.30000448 -0.059185386 -0.39627653 0.06505885 0.23639232 -0.12099256 0.19809708
0.051537916 -0.2575722 0.27312893 0.20858893 -0.10598427 -0.15441644 -0.12879041 0.093571216
0.02436494 0.20964476 -0.023947736 0.10218897 -0.37605733 -0.16041082 0.52511275 0.05934164
-0.2581784 -0.09916132 -0.14283495 0.21025865 0.3133678 -0.08331387 0.012520597 -0.16622454
0.12539081 0.26021644 -0.15519892 0.18846016 -0.027923862 0.06102618 0.06725193 0.091236904
-0.0004516822 0.00943082 -0.12335463 -0.020152997 -0.10780037 -0.21363601 0.38179624 -0.19666208
0.085596256 -0.06752204 0.23188385 0.17215374 0.07574697 0.20443769 -0.041676026 0.12434695
0.04956444 -0.02071583 -0.23015434 0.073572986 -0.06490348 -0.09054804 -0.16494586 -0.12797143
0.030813668 -0.16551141 0.15397444 -0.280275 -0.088183254 0.049622353 0.048060216 -0.18503669
-0.0019699316 -0.15771714 -0.15701805 -0.0030506833 -0.18179357 0.18808725 0.03229371 0.2979135
-0.1353037 0.07725258 0.24969219 -0.060602505 -0.03251398 0.16245797 -0.13206497 -0.014580717
0.41791436 0.06695964 0.22990432 -0.12520824 -0.0635039 -0.32055962 -0.03864854 0.24856736
-0.026224658 0.11152998 -0.41126657 0.08548931 0.06762898 -0.16551363 -0.0955894 0.39001778
-0.3551181 0.3483499 -0.113609694 0.2491395 -0.21124864 -0.16715695 -0.19855902 -0.25589618
-0.42783424 -0.07266168 -0.0538839 -0.16353524 -0.12088906 -0.2672783 0.07245332 0.09086605
0.09322769 0.40228528 -0.058693215 -0.22789389 0.1270496 0.23770665 -0.042539306 -0.11949758
0.012257272 0.31787476 -0.11804377 0.20899467 -0.21807145 -0.24373506 -0.00032740927 0.16119537
-0.3527099 -0.50016505 0.23406035 0.0018077223 0.115005784 -0.18945861 -0.07886983 -0.09558805
-0.025955744 -0.023302084 -0.0037643977 -0.07585249 -0.2628275 -0.00494839 0.056446843 -0.23072506
0.09462144 -0.48939484 0.06957573 0.008018622 -0.12396153 0.29995972 0.23285416 -0.10778767
0.004123293 0.0075836508 -0.22409084 -0.04824719 -0.021357004 0.010648177 -0.097368814 -0.28283408
0.16449642 -0.010394314 0.2911298 0.07441306 -0.3363381 -0.12180679 0.037994992 -0.045922846
-0.22841266 0.32808715 -0.14511663 0.1831332 0.07397318 0.32747972 0.25246876 0.07755329
0.05148018 -0.13427384 -0.034898903 0.0076159383 -0.12960641 0.31466383 0.13927023 0.00059424347
0.33542162 0.2343431 0.19776368 -0.082761325 0.004875833 -0.056041237 0.035492912 0.090016365
0.17997459 -0.32849598 0.14186078 -0.21350653 -0.10531514 -0.10192847 0.09342939 0.044108547
0.20183386 0.040113855 -0.0561158 -0.18622789 0.07657786 0.065204635 0.30041516 -0.20080724
-0.116613016 -0.1357018 0.07871636 -0.100085616 0.08101611 -0.10676687 -0.0056825 0.002261681
0.18363573 0.0054618027 0.209745 -0.24666326 0.20622964 0.17195903 0.04468902 0.21029666
0.16381529 -0.14046201 0.12602533 0.22050752 -0.17514461 0.12867115 -0.07480633 -0.094356954
-0.14258689 -0.044055555 -0.07968314 0.07078974 -0.2277782 0.060877215 -0.302306 0.24651961
00000000: 87b0 5b3e 198f 3dbd 043f 683d 3e42 383e
00000010: 92ca 233e 3767 ccbd 3c47 883e 5f2d 413e
00000020: 7ff2 a8be 309a 993e 606c 72bd c2e4 cabe
00000030: 933d 853d d410 723e f3ca f7bd f6d9 4a3e
00000040: 6c19 533d 81e0 83be 8ed7 8b3e 5698 553e
00000050: 480e d9bd 581f 1ebe a2e1 03be 44a2 bf3d
00000060: fc98 c73c 1ead 563e 0b2e c4bc 7348 d13d
00000070: 968a c0be bc42 24be ca6d 063f 3810 733d
00000080: f62f 84be 1715 cbbd 5343 12be 0b4e 573e
00000090: bf71 a03e 76a0 aabd 3123 4d3c c436 2abe
000000a0: 7366 003e 173b 853e 77ec 1ebe b3fb 403e
000000b0: 95c0 e4bc 96f6 793d 61bb 893d 6ada ba3d
000000c0: c2cf ecb9 ba83 1a3c 5aa1 fcbd e617 a5bc
000000d0: 71c6 dcbd 66c3 5abe cc7a c33e c961 49be
000000e0: 174d af3d ff48 8abd f672 6d3e 1249 303e
000000f0: 3a21 9b3d 1d58 513e 7bb4 2abd 9da9 fe3d
00000100: 1504 4b3d 3fb4 a9bc 94ad 6bbe 6fad 963d
00000110: 1eec 84bd 4071 b9bd 91e7 28be f10a 03be
00000120: f26c fc3c d37b 29be 7aab 1d3e 3480 8fbe
00000130: 6c99 b4bd cf40 4b3d cada 443d 427a 3dbe
00000140: f819 01bb 9a80 21be 57c9 20be f9ed 47bb
00000150: 1828 3abe f299 403e 6946 043d 1e88 983e
00000160: 0e8d 0abe 9a36 9e3d 4faf 7f3e 553a 78bd
00000170: 612d 05bd 625b 263e 0a3c 07be f6e3 6ebc
00000180: dff8 d53e 2322 893d 0a6c 6b3e 9736 00be
00000190: 550e 82bd 6420 a4be ee4d 1ebd 7188 7e3e
000001a0: 18d5 d6bc d569 e43d 8891 d2be 0515 af3d
000001b0: 1081 8a3d 687c 29be 60c4 c3bd 69b0 c73e
000001c0: 0ad2 b5be eb5a b23e 33ac e8bd 6d1e 7f3e
000001d0: 9051 58be 312b 2bbe 0e53 4bbe d304 83be
000001e0: 170d dbbe a6cf 94bd 5db5 5cbd c875 27be
000001f0: af94 f7bd b4d8 88be 6862 943d fb17 ba3d
00000200: 29ee be3d 56f8 cd3e 4c68 70bd 045d 69be
00000210: 4a19 023e 5f69 733e b23d 2ebd 26bb f4bd
00000220: bad2 483c 7bc0 a23e efc0 f1bd b302 563e
00000230: 1f4e 5fbe af95 79be 21a8 abb9 6610 253e
00000240: 6496 b4be d10a 00bf 84ad 6f3e 18f1 ec3a
00000250: 2788 eb3d 7001 42be 8186 a1bd abc3 c3bd
00000260: 24a1 d4bc 03e4 bebc 1db4 76bb 8d58 9bbd
00000270: 5391 86be 1b26 a2bb ce34 673d 3143 6cbe
00000280: e3c8 c13d f691 fabe b87d 8e3d 8a60 033c
00000290: 8bdf fdbd 5294 993e 5271 6e3e c8bf dcbd
000002a0: b01c 873b 4680 f83b 1278 65be d89e 45bd
000002b0: e2f4 aebc b175 2e3c 4d69 c7bd a1cf 90be
000002c0: c071 283e ea4c 2abc f70e 953e e065 983d
000002d0: 8234 acbe d775 f9bd a3a0 1b3d 9819 3cbd
000002e0: 02e5 69be 0afb a73e 7499 14be 4587 3b3e
000002f0: 407f 973d 6cab a73e 9643 813e 42d4 9e3d
00000300: e2dc 523d 157f 09be 27f2 0ebd 1f8f f93b
00000310: 8bb7 04be 9e1b a13e db9c 0e3e 01c7 1b3a
00000320: 62bc ab3e a3f7 6f3e 9082 4a3e c57e a9bd
00000330: 74c5 9f3b 7f8b 65bd 0461 113d 805a b83d
00000340: 424b 383e a030 a8be f443 113e 75a1 5abe
00000350: 77af d7bd e0bf d0bd e857 bf3d 2aab 343d
00000360: 89ad 4e3e 6d4e 243d aed9 65bd 86b2 3ebe
00000370: dad4 9c3d 028a 853d 04d0 993e 6aa0 4dbe
00000380: ced2 eebd 6af5 0abe 0b36 a13d b0f9 ccbd
00000390: c6eb a53d 97a8 dabd 4434 babb b638 143b
000003a0: 010b 3c3e ecf8 b23b 65c7 563e 4b95 7cbe
000003b0: dd2d 533e 0716 303e d50b 373d 0258 573e
000003c0: 32bf 273e 46d5 0fbe c90c 013e b9cc 613e
000003d0: 1c59 33be 5fc2 033e 1034 99bd 383e c1bd
000003e0: 4c02 12be 9973 34bd ea30 a3bd 36fa 903d
000003f0: b03e 69be 635a 793d dac7 9abe a36f 7c3e

block3.dw.weight f4 [60, 1, 3, 3]
-0.27873632 0.13150421 -0.116741 -0.29210687 0.03569831 0.2375816 0.29674625 -0.1826409
-0.6004959 -0.393089 0.021045476 0.023340471 0.35423958 0.19338137 0.3686579 -0.7103395
0.30358493 0.26406908 -0.09045836 -0.27678627 -0.83419204 0.19102794 0.60648113 -0.040539496
-0.35464936 -0.7380428 0.20426247 -0.06849066 0.012665836 0.020452384 -0.08086988 0.09670627
-0.35287276 0.00048283208 0.33397835 -0.59435046 0.21200645 -0.2655727 0.06353502 -0.2757703
0.3582791 -0.7120431 0.34928843 -0.16958635 -0.46593407 -0.26435167 0.10254654 -0.35913184
1.0358131 0.5274786 0.15607865 0.3487982 0.09142566 -0.27277938 -0.32059216 0.46520686
-0.19628401 0.11447178 0.008877784 -0.38160497 -0.53111887 -0.48617816 -0.48844573 -0.55168235
-0.18068714 -0.28333062 0.25198492 0.12093875 0.20385562 0.31388766 -0.68754584 -0.68944395
-0.4869128 0.72564167 0.19781141 -0.50505745 -0.3053216 0.13873936 0.01901875 -0.016761491
0.18119723 -0.6537919 0.7196698 0.22147404 0.43989223 0.53739417 0.36008435 -0.41117665
-0.04606206 -0.00043772906 0.024300486 0.08743459 -0.2442484 0.5959423 0.19992241 -0.29837942
-0.14844924 0.47927466 -0.6160815 -0.22304997 -0.25210208 -0.16934437 0.11636442 0.22352192
0.042068552 0.7055831 0.40979305 -0.39368755 -0.34700882 -0.16039766 0.17499606 0.46193606
0.39137536 -0.50933796 0.12958854 -0.078179955 -0.37601256 0.07251941 -0.022086287 -0.46586525
-0.425806 0.54673314 -0.38281298 0.118798494 -0.43057913 -0.109112225 -0.043937966 0.35659918
0.36183447 -0.23883484 0.65453875 0.17808655 -0.1718744 0.028328978 -0.32013822 -0.45148194
-0.11893681 0.38923126 0.028120432 0.116650134 -0.6391989 -0.51310575 -0.1105687 0.05100599
-0.16291575 0.1399257 0.119172856 -0.1798499 0.33196464 -0.11631857 -0.052088838 -0.043875713
-0.42467898 0.34934402 -0.29189807 -0.15745524 -0.3480432 -0.119387984 0.011833429 -0.356791
-0.11105181 0.4428333 -0.38269964 0.37141457 0.015552567 -0.17032129 0.29406857 0.049474116
0.07659448 -0.25415507 0.06878495 -0.11258504 0.25238943 0.013396468 0.22767885 0.74885356
-0.50650257 -0.3987222 -0.38974825 -0.06910876 -0.10598525 0.32237202 -0.053396218 -0.101641655
0.28220025 -0.24532518 0.07316024 -0.16780442 0.009681389 0.020835355 0.04817271 -0.39310578
0.10127448 0.30786628 -0.42226908 -0.4061593 -0.28625193 -0.31998023 -0.5010306 0.18393756
-0.10070863 -0.40259045 -0.17493048 -0.37025392 -0.4036737 -0.22079132 0.06922443 0.17519271
-0.46750438 0.18940265 0.5801302 0.5481663 -0.09574356 -0.007845966 -0.15934505 -0.7961116
-0.271619 0.333368 -0.22524634 -0.46398777 0.35797438 -0.3296767 -0.0072488235 0.15086086
-0.43959188 -0.4079998 -0.019766761 -0.42060488 -0.27322185 -0.07745248 0.67911536 -0.20593719
-0.40731892 -0.3082272 -0.38085636 -0.05449082 -0.04204167 -0.39186907 0.6339575 -0.09621452
-0.044192232 -0.054093767 -0.60971737 0.06619424 -0.16116725 0.6071281 0.09785081 -0.0027541816
0.003566619 0.2906822 -0.27019495 -0.2608598 -0.42055878 -0.053044986 -0.4322717 0.22721225
00000000: 87b6 8ebe 0aa9 063e e815 efbd 088f 95be
00000010: 6438 123d 9748 733e 20ef 973e 3706 3bbe
00000020: 19ba 19bf f642 c9be 9067 ac3c 8434 bf3c
00000030: e45e b53e c405 463e bac0 bc3e cfd8 35bf
00000040: 7c6f 9b3e 1034 873e 3c42 b9bd eeb6 8dbe
00000050: 9c8d 55bf d49c 433e 5942 1b3f be0c 26bd
00000060: 9a94 b5be 5ff0 3cbf 2e2a 513e d544 8cbd
00000070: 5e84 4f3c c28b a73c 1c9f a5bd f00d c63d
00000080: bdab b4be a024 fd39 36ff aa3e 5a27 18bf
00000090: 3818 593e 25f9 87be a61e 823d c431 8dbe
000000a0: 5c70 b73e 7548 36bf efd5 b23e 0ba8 2dbe
000000b0: e98e eebe 1a59 87be ec03 d23d 21e0 b7be
000000c0: 8695 843f d608 073f 15d3 1f3e ad95 b23e
000000d0: 603d bb3d bda9 8bbe a824 a4be 982f ee3e
000000e0: adfe 48be 2e70 ea3d 2074 113c ba61 c3be
000000f0: 68f7 07bf 58ec f8be 8f15 fabe 0e3b 0dbf
00000100: 0d06 39be b610 91be 2b04 813e bcae f73d
00000110: 87bf 503e e2b5 a03e 0103 30bf 667f 30bf
00000120: a24c f9be a7c3 393f 138f 4a3e 724b 01bf
00000130: 1d53 9cbe b111 0e3e 36cd 9b3c 654f 89bc
00000140: c48b 393e e85e 27bf 483c 383f 17ca 623e
00000150: 8e39 e13e aa92 093f fa5c b83e bf85 d2be
00000160: 92ab 3cbd 007f e5b9 d011 c73c e810 b33d
00000170: 411c 7abe ad8f 183f 76b8 4c3e 30c5 98be
00000180: 1403 18be 7d63 f53e 84b7 1dbf 3667 64be
00000190: 8613 81be 9c68 2dbe 7850 ee3d eee2 643e
000001a0: 1350 2c3d 18a1 343f 65d0 d13e 6a91 c9be
000001b0: 24ab b1be 493f 24be 2b32 333e e282 ec3e
000001c0: 5a62 c83e f963 02bf dcb2 043e d01c a0bd
000001d0: b884 c0be 0e85 943d 4dee b4bc e485 eebe
000001e0: 3e03 dabe b4f6 0b3f 1000 c4be a04c f33d
000001f0: de74 dcbe 3b76 dfbd 4cf8 33bd 2b94 b63e
00000200: 5e42 b93e 1f91 74be da8f 273f 525c 363e
00000210: d8ff 2fbe 2c12 e83c 28e9 a3be a428 e7be
00000220: 2495 f3bd 5249 c73e d25c e63c 44e6 ee3d
00000230: 8aa2 23bf e65a 03bf d871 e2bd a8eb 503d
00000240: 63d3 26be af48 0f3e e610 f43d 922a 38be
00000250: 45f7 a93e 6e38 eebd 1b5b 55bd 05b7 33bd
00000260: 866f d9be 38dd b23e aa73 95be f23b 21be
00000270: b832 b2be b081 f4bd 00e1 413c 4fad b6be
00000280: 226f e3bd 0cbb e23e 35f1 c3be 0d2a be3e
00000290: 32d0 7e3c b468 2ebe 2890 963e 5fa5 4a3d
000002a0: 91dd 9c3d 9d20 82be 20df 8c3d fc92 e6bd
000002b0: 3039 813e dc7c 5b3c a524 693e deb4 3f3f
000002c0: 27aa 01bf 5125 ccbe 158d c7be e588 8dbd
000002d0: cb0e d9bd f20d a53e feb5 5abd 8029 d0bd
000002e0: 8d7c 903e 8636 7bbe 09d5 953d ecd4 2bbe
000002f0: b09e 1e3c e8ae aa3c bf50 453d 2945 c9be
00000300: ff68 cf3d a6a0 9d3e a733 d8be 1df4 cfbe
00000310: 9d8f 92be 73d4 a3be 8b43 00bf 215a 3c3e
00000320: 5440 cebd 5620 cebe fa20 33be ec91 bdbe
00000330: 52ae cebe 1f17 62be 8ac5 8d3d b865 333e
00000340: bc5c efbe c5f2 413e 6a83 143f a054 0c3f
00000350: 3315 c4bd 5e8c 00bc 592b 23be f8cd 4bbf
00000360: a511 8bbe 36af aa3e faa6 66be ce8f edbe
00000370: 6b48 b73e 62cb a8be 8a87 edbb 457b 1a3e
00000380: 3012 e1be 5ae5 d0be e7ed a1bc 8659 d7be
00000390: bce3 8bbe 689f 9ebd 81da 2d3f 33e1 52be
000003a0: 1b8c d0be f5cf 9dbe 9bff c2be c431 5fbd
000003b0: e333 2cbd 10a3 c8be 0a4b 223f 1e0c c5bd
000003c0: ea02 35bd 6d91 5dbd 7016 1cbf d890 873d
000003d0: 0709 25be bf6c 1b3f 0166 c83d 807f 34bb
000003e0: f0bd 693b 4cd4 943e fe56 8abe 6a8f 85be
000003f0: 7b53 d7be b345 59bd b752 ddbe 54aa 683e

block3.pw.weight f4 [60, 60, 1, 1]
-0.15603885 0.11418042 -0.12089971 0.07092001 0.17596576 0.32592863 0.052177917 -0.09789813
0.0022951036 0.039481375 0.0042931903 0.12745692 -0.08096083 -0.17751613 0.20260385 -0.09628313
-0.01790325 0.08893398 -0.08318516 -0.21283045 -0.36262542 -0.027040005 -0.23399036 -0.006526407
-0.1729156 0.13786401 -0.42681748 0.37854484 -0.101237 0.027087199 -0.087695114 0.30974433
-0.23868386 0.0016143563 0.16850615 0.042252984 0.1408762 -0.20002854 0.119040646 0.14040944
0.16784963 -0.16857256 0.00468922 -0.27931634 -0.2423351 -0.22318217 -0.24115916 -0.028076744
-0.12582646 0.012371093 -0.09850165 -0.008572654 -0.07272456 -0.1500206 -0.17111096 -0.09981683
-0.13346042 0.13008428 -0.05877135 -0.28134504 0.0956006 0.1720662 0.08975053 0.020897696
0.14088593 -0.34059876 -0.03208156 0.36515528 -0.1667566 -0.10680607 0.26086202 0.03982683
0.20834157 -0.048894804 0.03103223 -0.23576869 0.6777732 0.07544779 -0.17207302 0.2519792
-0.05284306 -0.0068444386 0.16320872 -0.1896703 0.2154575 -0.1468755 0.25304148 -0.25437462
-0.0046990486 -0.40733606 0.16805476 -0.20379813 -0.11493636 0.035365555 -0.054699108 0.13268265
-0.13193867 -0.21201897 -0.2678537 -0.2086296 0.08038576 0.25732693 -0.26225165 -0.08770289
-0.06497513 -0.06503475 -0.20606169 0.07077277 -0.06937338 0.20484668 0.054431457 -0.056344185
-0.041933075 0.20101386 0.03420159 0.19556785 0.1831297 0.14588182 -0.028002523 -0.04379174
0.14186424 -0.033615783 -0.0056891646 -0.089368954 -0.12470877 -0.119434476 -0.0007904618 -0.28791475
-0.16104335 -0.059506856 -0.02896278 -0.05251573 0.070101716 -0.1400404 -0.047800068 -0.099236324
0.05548894 0.20386168 0.09767913 0.18884568 -0.21464176 -0.12933278 0.018228061 0.2240436
0.015907891 0.101258114 0.13375142 -0.079088695 -0.15502857 -0.01345637 0.029042374 0.015540614
0.21571992 0.047266636 0.6615117 0.06326515 -0.24790226 0.065930665 -0.09708053 0.019867854
-0.06850196 0.01684211 -0.005960083 -0.23961432 -0.33988962 0.24018356 -0.060810555 0.14425452
0.028867742 -0.08294262 0.077919684 -0.13914983 0.12859598 -0.14065857 0.2206319 -0.3821843
0.044209413 0.068847746 0.06072567 0.021557592 -0.2014667 0.27145922 0.09184422 -0.063986935
-0.19805916 -0.08200247 -0.13728222 -0.050540067 0.2799454 -0.07215857 0.018088553 0.11101153
-0.20793284 0.2385943 0.17540094 0.118523896 0.15790664 -0.28763565 -0.18901968 0.04044656
-0.2036502 0.17221117 0.028868353 0.07151242 -0.22605029 0.1210473 -0.22267959 -0.22030671
-0.104233354 0.1924838 -0.13910803 0.17742142 0.18126434 0.2963184 -0.02911216 0.05189634
0.0549817 0.112090595 -0.38277197 -0.2142119 -0.35033706 -0.035267714 0.09545298 -0.042929813
0.010297254 0.13939883 0.14845283 0.34511486 0.09176815 0.041338194 0.05858603 -0.17224489
-0.068331346 -0.03830979 -0.1668643 -0.0274363 -0.061231233 0.0059166695 0.00019825855 -0.17597905
-0.05687291 0.20248766 -0.26152548 -0.23953433 0.11925808 -0.1051401 -0.07152814 -0.32024178
0.08511313 -0.16482233 -0.32082573 0.020567898 -0.1380057 0.11871352 -0.11317036 -0.23043081
00000000: a6c8 1fbe 6dd7 e93d 449a f7bd 833e 913d
00000010: 5e30 343e 1ee0 a63e 83b8 553d d17e c8bd
00000020: 7369 163b 39b7 213d e4ad 8c3b 1184 023e
00000030: cbce a5bd cac6 35be 6277 4f3e 1730 c5bd
00000040: d6a9 92bc 0523 b63d fb5c aabd 3af0 59be
00000050: 0aaa b9be 0083 ddbc 2b9b 6fbe 78db d5bb
00000060: c910 31be 392c 0d3e d287 dabe a1d0 c13e
00000070: 5855 cfbd f9e5 dd3c 7f99 b3bd cf96 9e3e
00000080: 8b69 74be cf98 d33a e08c 2c3e 7711 2d3d
00000090: da41 103e 48d4 4cbe 95cb f33d 7ec7 0f3e
000000a0: c6e0 2b3e 499e 2cbe 07a8 993b 8d02 8fbe
000000b0: b126 78be de89 64be 6df2 76be 3301 e6bc
000000c0: a7d8 00be 20b0 4a3c 3cbb c9bd 5174 0cbc
000000d0: 9df0 94bd 009f 19be b637 2fbe c46c ccbd
000000e0: d9a9 08be d034 053e 3aba 70bd 750c 90be
000000f0: 3fca c33d 1f32 303e 20cf b73d a531 ab3c
00000100: 6744 103e f662 aebe f467 03bd a2f5 ba3e
00000110: 3ec2 2abe 24bd dabd b58f 853e 7521 233d
00000120: 7e57 553e eb45 48bd 4e37 fe3c 596d 71be
00000130: 8b82 2d3f 5f84 9a3d e933 30be 6b03 813e
00000140: f771 58bd 5047 e0bb 3020 273e ee38 42be
00000150: e4a0 5c3e 8866 16be a78e 813e 643d 82be
00000160: 7afa 99bb 5a8e d0be 8c16 2c3e 75b0 50be
00000170: c163 ebbd 79db 103d 2c0c 60bd f6dd 073e
00000180: ee1a 07be 801b 59be 1f24 89be ffa2 55be
00000190: 4aa1 a43d 5bc0 833e d945 86be 939d b3bd
000001a0: ae11 85bd f030 85bd d601 53be 50f1 903d
000001b0: a113 8ebd 54c3 513e 85f3 5e3d 29c9 66bd
000001c0: 04c2 2bbd 94d6 4d3e f716 0c3d f042 483e
000001d0: 5a86 3b3e 0b62 153e 8c65 e5bc f85e 33bd
000001e0: dc44 113e b4b0 09bd 2c6c babb 1207 b7bd
000001f0: 5067 ffbd 109a f4bd fe36 4fba 9069 93be
00000200: 8ce8 24be 76bd 73bd 5a43 edbc bc1a 57bd
00000210: 7d91 8f3d c066 0fbe 01ca 43bd 6a3c cbbd
00000220: 5f48 633d 1ec1 503e ff0b c83d c360 413e
00000230: 0dcb 5bbe d06f 04be 0453 953c af6b 653e
00000240: 4451 823c 6a60 cf3d 22f6 083e 41f9 a1bd
00000250: cfbf 1ebe 1b78 5cbc 46ea ed3c 0f9e 7e3c
00000260: afe5 5c3e a99a 413d d558 293f 2991 813d
00000270: 17da 7dbe a806 873d 28d2 c6bd e9c1 a23c
00000280: c14a 8cbd 77f8 893c cd4c c3bb 755d 75be
00000290: 0306 aebe aef2 753e 7d14 79bd 75b7 133e
000002a0: 0b7c ec3c d2dd a9bd 5b94 9f3d 4b7d 0ebe
000002b0: aaae 033e cd08 10be 54ed 613e a9ad c3be
000002c0: ee14 353d 0c00 8d3d 7bbb 783d 8c99 b03c
000002d0: 494d 4ebe b4fc 8a3e d318 bc3d 950b 83bd
000002e0: 05d0 4abe e9f0 a7bd b693 0cbe 1a03 4fbd
000002f0: 0155 8f3e dfc7 93bd 722e 943c 035a e33d
00000300: 59ec 54be 1052 743e 4e9c 333e a8bc f23d
00000310: 47b2 213e fb44 93be 608e 41be 4bab 253d
00000320: ae89 50be 2058 303e 537d ec3c 1b75 923d
00000330: ba79 67be a6e7 f73d 1e06 64be 1598 61be
00000340: 4c78 d5bd 791a 453e 5672 0ebe f6ad 353e
00000350: 5c9d 393e 0cb7 973e a07c eebc 4291 543d
00000360: 7e34 613d c18f e53d b0fa c3be 5d5a 5bbe
00000370: 615f b3be e174 10bd da7c c33d 2cd7 2fbd
00000380: d0b5 283c 91be 0e3e 0504 183e e5b2 b03e
00000390: f1f0 bb3d 3d52 293d e8f7 6f3d f760 30be
000003a0: 4ef1 8bbd baea 1cbd 7ade 2abe 17c2 e0bc
000003b0: 9acd 7abd 9fe0 c13b a0e3 4f39 da33 34be
000003c0: 92f3 68bd ed58 4f3e abe6 85be 7d48 75be
000003d0: 953d f43d b153 d7bd 587d 92bd bbf6 a3be
000003e0: cb4f ae3d 2fc7 28be 4543 a4be 027e a83c
000003f0: 5e51 0dbe 1320 f33d ddc5 e7bd 0ef6 6bbe

fc.weight f4 [4, 47040]
-0.08327664 -0.080146536 -0.081461675 -0.07847193 -0.078916885 -0.0804258 -0.07543628 -0.066707276
-0.07148597 -0.07069349 -0.06345426 -0.058800787 -0.030266285 -0.028915387 -0.028175088 -0.026516993
-0.026562288 -0.029971883 -0.026143046 -0.023173518 -0.04081836 -0.048487127 -0.056311674 -0.05194574
-0.066033214 -0.06794419 -0.038137544 -0.07479488 -0.062340192 -0.06942482 -0.079941384 -0.09608148
-0.0973967 -0.07664864 -0.0655009 -0.05071609 -0.063057356 -0.06408948 -0.066869 -0.04778314
-0.03418894 -0.027573308 -0.02374417 -0.025326394 -0.013891456 0.00301656 0.009321625 0.010537184
-0.036682334 -0.011267056 -0.0330191 -0.05527431 -0.06889359 -0.055801187 -0.05104972 -0.020521317
-0.019360706 -0.0401381 0.051178165 -0.039094158 -0.041626576 -0.040684 -0.03710568 -0.061023258
-0.068727784 -0.023566343 -0.015176652 0.003906757 0.0068107513 0.0058427607 0.014737323 0.018231804
0.012127111 0.004119768 -0.012206935 0.011199982 -0.013712963 -0.025092266 -0.0102332765 0.009236094
-0.01746415 -0.033640206 -0.042472687 -0.046440274 -0.011140923 -0.054748528 -0.029915087 -0.063923605
-0.03276817 -0.048015557 -0.059011362 -0.058012314 -0.035482313 -0.016476046 0.038247608 0.032894783
0.0021924432 -0.0017923161 0.0067699873 0.0028754077 0.010770007 0.020325942 0.0060332515 0.0074017984
-0.004598052 0.047839377 0.0056121065 -0.0029819314 -0.0073643797 -8.9215115e-05 -0.018317183 -0.07752291
-5.973471e-05 -0.071100675 -0.047616 -0.027377361 -0.024188835 -0.03205284 -0.037266586 -0.030793643
0.0035098766 -0.015230731 0.02687157 0.03222678 0.020209648 0.010221731 -0.0005051574 0.0045326026
0.0011240203 0.009088667 -0.0009106194 0.017882725 -0.024505341 -0.024639186 0.018847058 0.044072747
-0.04286446 -0.012369414 0.011766799 -0.06362583 -0.0039680195 -0.072075106 -0.032818165 -0.0126059055
-0.0404625 -0.03204419 -0.00037042756 -0.0133023 0.014470987 0.008522574 -0.013532922 -0.0031091247
0.0016353998 0.023460839 0.019704495 0.0076787267 -0.023289166 -0.009184415 -0.010499376 -0.022147646
-0.01747935 0.011050198 -0.021156149 -0.004164187 0.041781288 -0.05837797 0.013892807 -0.048792977
-0.075162835 -0.08299479 -0.03456817 -0.016986305 -0.0016573782 -0.005569919 -0.012944306 0.0065587643
-0.004643207 -0.0064119934 0.014850253 0.017164197 0.006694248 -0.015183028 -0.013896806 -0.017669346
-0.0038514326 0.003513493 -0.027045144 -0.012336405 -0.033040732 -0.0076421145 0.0059227124 -0.020574749
-0.0039520278 0.0055413353 -0.022898143 -0.025886724 -0.079751134 -0.055569295 -0.01762242 -0.0028094975
-0.014714491 0.010208476 0.0014169543 0.009451305 0.018214816 0.0137960985 0.01565306 -0.004401607
-0.008032546 -0.019471569 0.0126375705 -0.0038037994 -0.038996685 -0.037325114 -0.040497378 -0.02645783
-0.0053954273 -0.012264352 -0.00308586 0.017808726 -0.030345025 0.0099691665 -0.024080452 -0.013061892
-0.051944647 -0.0079834815 -0.037911534 -0.017893124 -0.0023461084 0.01917204 0.024192572 0.018252684
0.025727833 0.012782885 0.030316737 0.013401598 -0.036360722 -0.033914346 -0.025145283 -0.015488596
-0.026553448 -0.03257783 -0.024549305 -0.017453382 0.009840626 -0.005946595 0.016169937 -0.007913972
0.024216209 -0.026181411 0.0176494 0.0002609396 -0.05054942 0.015901867 0.014521433 0.0152180875
00000000: f18c aabd de23 a4bd 61d5 a6bd e4b5 a0bd
00000010: 2d9f a1bd 48b6 a4bd 567e 9abd d39d 88bd
00000020: 3c67 92bd c0c7 90bd 4ff4 81bd 18d9 70bd
00000030: 00f1 f7bc f6df ecbc 71cf e6bc 2a3a d9bc
00000040: 2899 d9bc 9887 f5bc f129 d6bc 64d6 bdbc
00000050: 2731 27bd 709a 46bd 12a7 66bd 0ec5 54bd
00000060: 6c3c 87bd 5326 8bbd 1d36 1cbd 0f2e 99bd
00000070: 6e58 7fbd 9a2e 8ebd 4fb8 a3bd 5ec6 c4bd
00000080: ec77 c7bd f6f9 9cbd 5625 86bd adbb 4fbd
00000090: 3724 81bd 5841 83bd 9df2 88bd 41b8 43bd
000000a0: b409 0cbd 6be1 e1bc 2283 c2bc 4c79 cfbc
000000b0: fd98 63bc 7bb1 453b bbb9 183c 27a4 2c3c
000000c0: 3740 16bd 7599 38bc 093f 07bd 5167 62bd
000000d0: 1518 8dbd c98f 64bd 8319 51bd 521c a8bc
000000e0: 589a 9ebc d967 24bd 32a0 513d 3221 20bd
000000f0: a180 2abd 44a4 26bd 20fc 17bd 86f3 79bd
00000100: 27c1 8cbd 340e c1bc 7ea7 78bc 4104 803b
00000110: b92c df3b a174 bf3b d074 713c dd5a 953c
00000120: cab0 463c 1eff 863b 99ff 47bc 2180 373c
00000130: 56ac 60bc 4c8e cdbc 79a9 27bc fc52 173c
00000140: fa10 8fbc 50ca 09bd d7f7 2dbd 2838 3ebd
00000150: 6b88 36bc fe3f 60bd 7c10 f5bc 61ea 82bd
00000160: eb37 06bd f6ab 44bd e6b5 71bd 529e 6dbd
00000170: e755 11bd c6f8 86bc 86a9 1c3d aebc 063d
00000180: 18af 0f3b 26ec eaba c5d6 dd3b 5671 3c3b
00000190: af74 303c 9782 a63c 95b2 c53b c98a f23b
000001a0: 41ab 96bb 39f3 433d c3e5 b73b 826c 43bb
000001b0: e550 f1bb 0019 bbb8 eb0d 96bc 55c4 9ebd
000001c0: a88b 7ab8 3b9d 91bd ff08 43bd 7d46 e0bc
000001d0: aa27 c6bc d749 03bd d9a4 18bd f342 fcbc
000001e0: f505 663b 518a 79bc c421 dc3c 3a00 043d
000001f0: b48e a53c 0c79 273c 8a6c 04ba 3a86 943b
00000200: dd53 933a a2e8 143c a2b6 6eba cb7e 923c
00000210: 6dbf c8bc 1ed8 c9bc 2565 9a3c a085 343d
00000220: a592 2fbd 15a9 4abc 88c9 403c 424e 82bd
00000230: 2906 82bb 1d9c 93bd 576c 06bd 0089 4ebc
00000240: 02bc 25bd c540 03bd f235 c2b9 e4f1 59bc
00000250: b817 6d3c 44a2 0b3c 30b9 5dbc 75c2 4bbb
00000260: e95a d63a f230 c03c 526b a13c d49d fb3b
00000270: ecc8 bebc 3b7a 16bc 9305 2cbc fb6e b5bc
00000280: db30 8fbc e40b 353c a94f adbc bb73 88bb
00000290: db22 2b3d bd1d 6fbd a89e 633c 25db 47bd
000002a0: f9ee 99bd 2cf9 a9bd 5a97 0dbd dd26 8bbc
000002b0: 623c d9ba de83 b6bb 5b14 54bc e7ea d63b
000002c0: 0b26 98bb b31b d2bb 7a4e 733c ee9b 8c3c
000002d0: 6c5b db3b 3cc2 78bc 6eaf 63bc 4ebf 90bc
000002e0: 5168 7cbb a242 663b c78d ddbc a21e 4abc
000002f0: b855 07bd b46a fabb 5013 c23b 608c a8bc
00000300: 0380 81bb 1794 b53b e394 bbbc 6510 d4bc
00000310: 9054 a3bd a19c 63bd e55c 90bc 8c1f 38bb
00000320: 0c15 71bc 7441 273c 19b9 b93a a5d9 1a3c
00000330: 3d37 953c 0809 623c d93a 803c 5b3b 90bb
00000340: f19a 03bc d782 9fbc d00d 4f3c 2a49 79bb
00000350: fdba 1fbd 38e2 18bd 94e0 25bd 17be d8bc
00000360: 20cc b0bb 6cf0 48bc 243c 4abb 9be3 913c
00000370: 2196 f8bc b755 233c 5e44 c5bc 8c01 56bc
00000380: e9c3 54bd 26cd 02bc 2049 1bbd 9a94 92bc
00000390: 2bc1 19bb af0e 9d3c 802f c63c a786 953c
000003a0: 2dc3 d23c 4e6f 513c ce5a f83c 6092 5b3c
000003b0: fbee 14bd c5e9 0abd 7bfd cdbc e1c3 7dbc
000003c0: 9e86 d9bc 5570 05bd a01b c9bc 65fa 8ebc
000003d0: 943a 213c a8db c2bb d176 843c 9ba9 01bc
000003e0: 1261 c63c 667a d6bc 7995 903c b8ce 8839
000003f0: e90c 4fbd a244 823c 4eeb 6d3c 4955 793c

fc.bias f4 [4]
0.04720274 -0.018225202 -0.047708713 0.027333595
00000000: a957 413d 054d 95bc 366a 43bd b4ea df3c
